SelfDrivingCar/Self_Driving_Car_Updated/Self_Driving_Car_Updated/last_brain.pth (torch, 7851 bytes, 12 tensors)

fc_input_hidden.weight f4 [30, 5]
0	0x3e5e06f8	0.21682346
1	0x3f38b8c6	0.7215694
2	0x3e895d4e	0.26828998
3	0xbd79ea29	-0.06101433
4	0x3f38ab7d	0.7213667
5	0x3caaef8f	0.020866184
6	0xbe0c0d35	-0.13676913
7	0x3f363b28	0.71184015
8	0x3ea236ea	0.3168252
9	0x3e9b8934	0.30378115
10	0x3f0e6491	0.556222
11	0x3d9910ae	0.074738845
12	0x3ee97e74	0.4560429
13	0xbf628863	-0.8848936
14	0x3f89e045	1.0771567
15	0x3e59ce4e	0.21270105
16	0xbe1a68e3	-0.15079074
17	0x3e3328fb	0.17496102
18	0x3f202745	0.6255992
19	0xbf3a3c91	-0.72748667
20	0xbd5105a0	-0.051030755
21	0x3e43e3a9	0.19129814
22	0xbf371805	-0.71521026
23	0xbf55e58c	-0.83553386
24	0x3ec91502	0.3927384
25	0x3f500624	0.8125937
26	0x3ef9bba7	0.4877598
27	0xbdd637d4	-0.10459867
28	0xbd46f474	-0.048572972
29	0x3da43213	0.080173634
30	0x3bca40b7	0.0061722654
31	0x3f6ce493	0.92536277
32	0xbd7412f9	-0.059588406
33	0x3e8dc328	0.27687955
34	0x3e856f9a	0.26061708
35	0x3e8b6694	0.27226698
36	0x3f2b1cee	0.6684102
37	0x3dba4cb5	0.09096662
38	0xbf706b01	-0.93913275
39	0x3f8721ab	1.055715
40	0xbe7ad6b5	-0.24495967
41	0xbeca1943	-0.39472398
42	0xbf25c653	-0.64755744
43	0x3f8ae7f1	1.0852033
44	0xbfa20578	-1.2657919
45	0x3efe982d	0.49725476
46	0xbe40df20	-0.18835115
47	0x3ed2eb19	0.4119499
48	0x3e99b301	0.30019382
49	0x3ec3cd86	0.3824274
50	0x3e878099	0.264653
51	0xbe345750	-0.17611432
52	0xbe16ce61	-0.14727165
53	0x3e65e1a1	0.22449352
54	0x3eb468bb	0.35236153
55	0xbddbee3c	-0.10738799
56	0xbe419ec0	-0.18908215
57	0xbbfeb080	-0.0077725053
58	0xbce92560	-0.028460205
59	0xbdff1838	-0.12455791
60	0x3e067bf0	0.13133216
61	0xbec6fa45	-0.38862815
62	0xbea3d635	-0.31999364
63	0xbdf729d4	-0.12068525
64	0x3e89945b	0.26871
65	0x3dc9e84c	0.0985876
66	0x3e104f85	0.14092834
67	0xbe8b3888	-0.27191567
68	0xbebd8844	-0.37018025
69	0x3ee80d4e	0.4532265
70	0x3dec6ffa	0.11544795
71	0x3e979bfc	0.29611194
72	0x3f0e7195	0.5564206
73	0xbf0a8803	-0.5411379
74	0x3f3e7601	0.7439881
75	0xbea64bcb	-0.324797
76	0x3e2605fc	0.1621322
77	0xbe2ada46	-0.16684827
78	0xbe9d9a18	-0.30781627
79	0xbe31af62	-0.1735206
80	0x3eaffb9b	0.34371647
81	0x3df163c5	0.11786608
82	0x3e9f39f9	0.31098917
83	0x3eea74e2	0.457923
84	0x3e726f93	0.23675375
85	0xbf0f90eb	-0.560805
86	0xbe90ac30	-0.2825637
87	0xbf10d3ab	-0.5657298
88	0x3f0d501b	0.55200356
89	0xbf5f2802	-0.8717042
90	0x3ec2e956	0.38068646
91	0x3e69f0f0	0.22845817
92	0x3ebdcbed	0.37069646
93	0xbf21c7bc	-0.63195395
94	0x3f51a45e	0.8189143
95	0xbab0d692	-0.0013491681
96	0xbec1fcf1	-0.3788829
97	0x3eb62eb7	0.35582516
98	0xbeadbf57	-0.33935043
99	0x3f34e1b6	0.7065691
100	0xbf27bcdc	-0.6552255
101	0xbe2a6b03	-0.16642384
102	0x3e02f22e	0.12787697
103	0x3de159e6	0.11003475
104	0x3e877446	0.26455897
105	0x3d5c74cd	0.053822327
106	0xbd9c3c74	-0.07628718
107	0x3f12f1ab	0.57400006
108	0xbf55daa0	-0.8353672
109	0x3f30fd92	0.6913692
110	0x3de73840	0.11290026
111	0x3f28bb6c	0.65910983
112	0xbe34b7fc	-0.1764831
113	0xbe8a5f47	-0.27025816
114	0xbeae6df1	-0.34068254
115	0xbe551f21	-0.20812656
116	0x3e31dccc	0.17369384
117	0xbf6e3ca3	-0.93061274
118	0xbf28c141	-0.6591988
119	0x3ef6ee94	0.48228896
120	0x3e0e38d1	0.13888861
121	0x3d673e7b	0.05645607
122	0x3f049898	0.5179534
123	0x3f6c3d9d	0.92281514
124	0xbed26af5	-0.41097227
125	0x3e7ab130	0.24481654
126	0x3c46c1e6	0.01213119
127	0xbe990728	-0.29888272
128	0xbe537582	-0.20650294
129	0xbe8750c0	-0.26428795
130	0x3e8fb392	0.2806669
131	0x3f23199d	0.6371096
132	0x3ce131e6	0.027489614
133	0x3ec2f360	0.38076305
134	0xbf676fe1	-0.9040509
135	0xbedec2eb	-0.43508086
136	0x3e930d9d	0.28721324
137	0x3e2da83c	0.16958708
138	0x3da16a9f	0.078816645
139	0x3d8bce5e	0.06826471
140	0x3e9294f2	0.2862926
141	0xbe5687de	-0.20950267
142	0xbd4d5bd6	-0.05013641
143	0x3eef4445	0.46731773
144	0xbf16942b	-0.58819836
145	0xbe7875c0	-0.24263668
146	0xbe3f9c20	-0.187119
147	0xbf0e8c0c	-0.55682445
148	0x3d9b6a3b	0.07588621
149	0xbdcc7461	-0.09983135

fc_input_hidden.bias f4 [30]
0	0xbe575e6c	-0.21032113
1	0x3ef20f3d	0.4727725
2	0xbe3e1eda	-0.18566456
3	0x3e674e26	0.22588405
4	0x3e37505e	0.17901751
5	0x3ec8d64f	0.39226004
6	0xbee587ae	-0.44830078
7	0xbe848a96	-0.25886983
8	0xbf069b70	-0.5258093
9	0x3ef44881	0.47711566
10	0x3e90c368	0.28274083
11	0xbe54cc2d	-0.20781012
12	0xbec154eb	-0.377601
13	0x3e03a536	0.12855992
14	0x3d93c405	0.07215122
15	0xbe9863b1	-0.29763559
16	0x3e7c373b	0.24630444
17	0x3f63455b	0.88777703
18	0x3f875fe3	1.0576137
19	0x3f1226bb	0.5709035
20	0x3e9a7346	0.30166072
21	0x3f247fa1	0.64257246
22	0x3e749d8f	0.23888229
23	0xbf17ecc8	-0.59345675
24	0xbef5c6e2	-0.48003298
25	0xbeae58e0	-0.3405218
26	0x3eb5ebe7	0.35531542
27	0xbee372ba	-0.44423467
28	0xbf16aae1	-0.5885449
29	0x3ee1d20e	0.44105572

fc_output_hidden.weight f4 [3, 30]
0	0xbeda7973	-0.42670783
1	0xbe1ee7d5	-0.15518124
2	0xbea1eae5	-0.31624523
3	0xbf042482	-0.51618207
4	0xbf170c7d	-0.5900343
5	0xbe3724c9	-0.17885126
6	0x3f82185b	1.0163683
7	0xbebb50f4	-0.365852
8	0xbfca7331	-1.5816404
9	0xbe357c49	-0.17723192
10	0x3c3de3a1	0.0115899155
11	0xbe172d24	-0.14763314
12	0x3e0c97a8	0.13729727
13	0xbd25b8d8	-0.040459484
14	0xbe88703f	-0.26648137
15	0x3d8b805c	0.06811592
16	0xbea1a32a	-0.31569797
17	0x3f84b61d	1.0368077
18	0x3f10f98d	0.56630784
19	0x3d2fb197	0.042893972
20	0x3e2001ea	0.1562573
21	0xbe8fd73e	-0.28093904
22	0xbe8ce70f	-0.27520034
23	0x3fa178ac	1.2614951
24	0xbe86c20d	-0.26319924
25	0x3bb00dcf	0.00537274
26	0xbe52e073	-0.20593433
27	0x3e16da8a	0.14731804
28	0x3fbcb6ea	1.4743321
29	0x3e9703fc	0.29495227
30	0xbe0aa3dc	-0.1353907
31	0x3d61c6a2	0.05512107
32	0xbea6baeb	-0.32564482
33	0xbf0f2d52	-0.5592853
34	0xbe463457	-0.19355904
35	0xbebddbde	-0.37081808
36	0x3ee1548d	0.4400982
37	0xbee07cca	-0.43845206
38	0xbf8806cb	-1.0627073
39	0xbd992c0a	-0.07479103
40	0xbc279392	-0.010228055
41	0xbd03c1b8	-0.032167166
42	0x3d20af38	0.0392296
43	0xbf36459a	-0.71199954
44	0xbe8eeae4	-0.27913582
45	0x3dc26928	0.09492713
46	0xbd8aa580	-0.06769848
47	0x3f3d3105	0.7390292
48	0x3f18ed3d	0.59736997
49	0x3a1b1c18	0.0005916967
50	0x3f0ebde9	0.5575853
51	0xbdbda45c	-0.09259865
52	0xbeb0c8eb	-0.34528288
53	0x3f0bdea7	0.54636616
54	0xbf0dcb6d	-0.5538853
55	0x3dbefd5c	0.09325668
56	0xbebdfa19	-0.37104872
57	0x3d0eae0c	0.034833953
58	0xbb8186bd	-0.0039528296
59	0x3ed38d39	0.41318682
60	0x3e9d7550	0.30753565
61	0x3c99bb82	0.018766169
62	0xbecbea3c	-0.39827144
63	0xbc4a1e30	-0.012336299
64	0xbe68c848	-0.22732651
65	0x3e3282c8	0.17432702
66	0x3eaa6768	0.33282018
67	0xbe9fe827	-0.31231806
68	0xbf38e6e6	-0.72227323
69	0x3dce82cf	0.100835435
70	0x3e07f848	0.13278306
71	0x3d9db804	0.07701114
72	0xbde62c61	-0.11238933
73	0xbed32187	-0.41236517
74	0xbe0b210a	-0.13586822
75	0xbdfce0de	-0.123475775
76	0xbd968a2b	-0.07350572
77	0x3e86e1cd	0.26344147
78	0x3efd2d69	0.49448708
79	0xbf0e65f4	-0.5562432
80	0x3eeca885	0.4622232
81	0xbef7f3b0	-0.48428106
82	0xbdc113fe	-0.09427641
83	0x3f98c4c3	1.1935047
84	0xbe36dd91	-0.17857958
85	0xbd8876ec	-0.066633075
86	0xbe82c37a	-0.25539762
87	0x3d92b643	0.0716367
88	0xbebd4c34	-0.369722
89	0x3e91f8b7	0.28510067

fc_output_hidden.bias f4 [3]
0	0x3dae820a	0.08520897
1	0xbd1a3f00	-0.037657738
2	0xbdc8231e	-0.09772323

exp_avg f4 [30, 5]
0	0xba8cfd9a	-0.0010756731
1	0x384acbe8	4.8350455e-05
2	0xba0697da	-0.0005134322
3	0xb8026710	-3.10904e-05
4	0x38026710	3.10904e-05
5	0xb8b05c00	-8.40947e-05
6	0x397977c4	0.00023791107
7	0xb8c0eb83	-9.199141e-05
8	0xb90e0eec	-0.00013547734
9	0x390e0eec	0.00013547734
10	0x3a1493a0	0.000566775
11	0xb7ea8644	-2.7957496e-05
12	0x3a4638bc	0.00075615547
13	0xba3815fc	-0.0007022319
14	0x3a3815fc	0.0007022319
15	0x36a700a5	4.977063e-06
16	0x3ae8ae12	0.0017752072
17	0x3912069c	0.00013926107
18	0x394a15f4	0.000192724
19	0xb94a15f4	-0.000192724
20	0xb906e050	-0.00012862799
21	0x3931f1d0	0.00016970118
22	0x38e163eb	0.00010747447
23	0xba8e806b	-0.0010872012
24	0x3a8e806b	0.0010872012
25	0xba22ca4b	-0.00062099536
26	0x37dd38c8	2.6371694e-05
27	0x383f91ef	4.567386e-05
28	0xb95e9f46	-0.00021230904
29	0x395e9f46	0.00021230904
30	0xba2a34d1	-0.00064928556
31	0xbb1537e4	-0.002276891
32	0xba24eb65	-0.000629118
33	0xba5d076b	-0.00084315863
34	0x3a5d076b	0.00084315863
35	0x39f0486b	0.00045830323
36	0x3843b957	4.6664234e-05
37	0x3a701694	0.0009158638
38	0xba4a3e08	-0.0007714932
39	0x3a4a3e08	0.0007714932
40	0x3a4d97a8	0.0007842728
41	0x3a7e0cf0	0.0009691259
42	0x389d541e	7.5020114e-05
43	0x3abf1954	0.0014579692
44	0xbabf1954	-0.0014579692
45	0xb9b8784d	-0.00035184846
46	0x392aeced	0.00016300725
47	0xb8a8f187	-8.055852e-05
48	0xb93cb8d6	-0.00017997934
49	0x393cb8d6	0.00017997934
50	0xb9c78a88	-0.00038059452
51	0xb9447a5b	-0.00018737598
52	0xb8b6346a	-8.688199e-05
53	0xb87edb12	-6.0762344e-05
54	0x387edb12	6.0762344e-05
55	0x00000000	0.0
56	0x00000000	0.0
57	0x00000000	0.0
58	0x00000000	0.0
59	0x00000000	0.0
60	0x00000000	0.0
61	0x00000000	0.0
62	0x00000000	0.0
63	0x80000004	-6e-45
64	0x00000004	6e-45
65	0x39a1ff2f	0.0003089844
66	0x3965cf52	0.00021916375
67	0x3a7780b5	0.0009441481
68	0xb9aaaad6	-0.0003255221
69	0x39aaaad6	0.0003255221
70	0x3865f276	5.4823664e-05
71	0x38a91c46	8.063814e-05
72	0x393c883c	0.00017979828
73	0xba0e42b8	-0.0005426812
74	0x3a0e42b8	0.0005426812
75	0x00000000	0.0
76	0x00000000	0.0
77	0x00000000	0.0
78	0x00000000	0.0
79	0x00000000	0.0
80	0x38f5f77d	0.00011728609
81	0x3a0f023a	0.0005455349
82	0x360aaef2	2.0665434e-06
83	0xb9862e1a	-0.0002559282
84	0x39862e1a	0.0002559282
85	0xb908a152	-0.00013030067
86	0xbaa67f30	-0.00127027
87	0x3979dc24	0.00023828499
88	0x3a02fd36	0.0004996838
89	0xba02fd36	-0.0004996838
90	0xba998875	-0.0011713641
91	0xbab113aa	-0.0013509889
92	0xba135f53	-0.00056218094
93	0x39dfe938	0.00042707636
94	0xb9dfe938	-0.00042707636
95	0x3a83c350	0.0010052714
96	0x39e034dc	0.00042763993
97	0x39b64c22	0.00034770468
98	0xb9a303ef	-0.00031092713
99	0x39a303ef	0.00031092713
100	0x39ec359e	0.00045053376
101	0x386cae01	5.642884e-05
102	0x3a6beb4c	0.00089996005
103	0x398b192f	0.0002653091
104	0xb98b192f	-0.0002653091
105	0x3a2ba496	0.00065476575
106	0x3a394b52	0.00070684135
107	0x399bb27e	0.0002969689
108	0xba51db3a	-0.00080053846
109	0x3a51db3a	0.00080053846
110	0x390f77da	0.00013682191
111	0x39e5983c	0.00043791707
112	0x3952a656	0.00020089126
113	0xb972bef7	-0.00023150058
114	0x3972bef7	0.00023150058
115	0x39e5ec51	0.00043854353
116	0xb7aadb48	-2.036769e-05
117	0x34cc4a00	3.8051803e-07
118	0x3a12a4bc	0.00055940053
119	0xba12a4bc	-0.00055940053
120	0x39d005c7	0.00039677156
121	0x39e61f25	0.00043892223
122	0xb8bb1f09	-8.9226356e-05
123	0x39bafd44	0.00035665382
124	0xb9bafd44	-0.00035665382
125	0x00000004	6e-45
126	0x00000004	6e-45
127	0x00000000	0.0
128	0x00000004	6e-45
129	0x80000004	-6e-45
130	0x3a645457	0.00087100774
131	0x3a2bdfb2	0.00065564655
132	0x39aa5dac	0.00032494718
133	0x36f25430	7.2219627e-06
134	0xb6f25430	-7.2219627e-06
135	0x00000000	0.0
136	0x00000004	6e-45
137	0x00000004	6e-45
138	0x80000004	-6e-45
139	0x00000004	6e-45
140	0x39fd4ce2	0.00048313203
141	0x386095f8	5.354543e-05
142	0x392fdc34	0.00016771333
143	0x397f71a7	0.00024361034
144	0xb97f71a7	-0.00024361034
145	0xb71c6890	-9.32267e-06
146	0xb921e762	-0.00015440353
147	0x39039f64	0.00012552511
148	0xb6fea4c0	-7.5889693e-06
149	0x36fea4c0	7.5889693e-06

exp_avg_sq f4 [30, 5]
0	0x36b1d63a	5.2999503e-06
1	0x378aa27a	1.6526541e-05
2	0x364dc7ae	3.066361e-06
3	0x36b42dca	5.3697486e-06
4	0x36b42dca	5.3697486e-06
5	0x3551ddac	7.818114e-07
6	0x361ae88c	2.3083148e-06
7	0x35303f79	6.5657474e-07
8	0x35669590	8.589932e-07
9	0x35669590	8.589932e-07
10	0x37198ec0	9.152747e-06
11	0x375a996c	1.3029534e-05
12	0x36b93075	5.519071e-06
13	0x36e7ca16	6.9078624e-06
14	0x36e7ca16	6.9078624e-06
15	0x35faed8e	1.8695589e-06
16	0x37393d96	1.1041198e-05
17	0x35dcf27a	1.6461847e-06
18	0x36654775	3.4165253e-06
19	0x36654775	3.4165253e-06
20	0x36b02d80	5.2505056e-06
21	0x37d8c0fc	2.5839072e-05
22	0x36403c03	2.864516e-06
23	0x371a4e21	9.197306e-06
24	0x371a4e21	9.197306e-06
25	0x36588c71	3.2268256e-06
26	0x36cbfef1	6.0795505e-06
27	0x360a38c0	2.0596635e-06
28	0x3681490c	3.8530034e-06
29	0x3681490c	3.8530034e-06
30	0x37702932	1.4314706e-05
31	0x388d66aa	6.7425266e-05
32	0x36ee7818	7.1069335e-06
33	0x37844a05	1.5770094e-05
34	0x37844a05	1.5770094e-05
35	0x36e63e5e	6.8617946e-06
36	0x376c3789	1.4079626e-05
37	0x3684d43a	3.958613e-06
38	0x36dc9c41	6.5747013e-06
39	0x36dc9c41	6.5747013e-06
40	0x36e5e3e0	6.85126e-06
41	0x378ebd73	1.7015938e-05
42	0x35ab86b7	1.27797e-06
43	0x380f7b45	3.420866e-05
44	0x380f7b45	3.420866e-05
45	0x35bfbb3b	1.42851e-06
46	0x3672478e	3.610246e-06
47	0x358c481d	1.04518e-06
48	0x35d015cc	1.5503551e-06
49	0x35d015cc	1.5503551e-06
50	0x35398c5e	6.912213e-07
51	0x355a622a	8.1354176e-07
52	0x34d0e63e	3.8910542e-07
53	0x35131d08	5.4804013e-07
54	0x35131d08	5.4804013e-07
55	0x00000000	0.0
56	0x00000000	0.0
57	0x00000000	0.0
58	0x00000000	0.0
59	0x00000000	0.0
60	0x00000000	0.0
61	0x00000000	0.0
62	0x00000000	0.0
63	0x2fa68f4d	3.0297045e-10
64	0x2fa68f4d	3.0297045e-10
65	0x37239f70	9.752679e-06
66	0x3743504c	1.1641601e-05
67	0x36a7d113	5.0013273e-06
68	0x3719fd1a	9.17844e-06
69	0x3719fd1a	9.17844e-06
70	0x360b02aa	2.0714165e-06
71	0x36da374e	6.5033446e-06
72	0x35d12589	1.5582638e-06
73	0x36306393	2.6284004e-06
74	0x36306393	2.6284004e-06
75	0x00000000	0.0
76	0x00000000	0.0
77	0x00000000	0.0
78	0x00000000	0.0
79	0x00000000	0.0
80	0x364f6580	3.0904484e-06
81	0x371fb364	9.518906e-06
82	0x36277f11	2.4958902e-06
83	0x366fd6c8	3.5738794e-06
84	0x366fd6c8	3.5738794e-06
85	0x36d037b5	6.205368e-06
86	0x38a00919	7.631089e-05
87	0x36245b78	2.4491146e-06
88	0x37eb6e9e	2.8065693e-05
89	0x37eb6e9e	2.8065693e-05
90	0x379ba320	1.85534e-05
91	0x3825b050	3.950327e-05
92	0x37269680	9.929412e-06
93	0x37af89b5	2.092575e-05
94	0x37af89b5	2.092575e-05
95	0x374db2b9	1.2260564e-05
96	0x3753f10c	1.2632703e-05
97	0x36f919b1	7.423769e-06
98	0x36e2419b	6.7429623e-06
99	0x36e2419b	6.7429623e-06
100	0x35caec22	1.5118896e-06
101	0x369b844c	4.6347614e-06
102	0x3634ba7d	2.693064e-06
103	0x3695e69f	4.467394e-06
104	0x3695e69f	4.467394e-06
105	0x37370b6e	1.0910311e-05
106	0x3782b99a	1.5583635e-05
107	0x36dc0f29	6.558276e-06
108	0x36ee396e	7.0996384e-06
109	0x36ee396e	7.0996384e-06
110	0x363d5fa5	2.8218867e-06
111	0x37065cca	8.0086265e-06
112	0x3627ab03	2.498448e-06
113	0x366d33ad	3.5345831e-06
114	0x366d33ad	3.5345831e-06
115	0x36de2a7f	6.6210628e-06
116	0x370d1208	8.408453e-06
117	0x33aa80df	7.9396834e-08
118	0x377a23b2	1.4909472e-05
119	0x377a23b2	1.4909472e-05
120	0x35828ccc	9.726732e-07
121	0x35d6a590	1.5992428e-06
122	0x35526123	7.837245e-07
123	0x35b3a944	1.3385802e-06
124	0x35b3a944	1.3385802e-06
125	0x2ad65b06	3.8077197e-13
126	0x2ab59d2e	3.2261124e-13
127	0x00000000	0.0
128	0x2a70df21	2.1393695e-13
129	0x2a70df21	2.1393695e-13
130	0x36573b79	3.2072114e-06
131	0x36d4a339	6.337094e-06
132	0x36091e7b	2.0432333e-06
133	0x363c7881	2.8084326e-06
134	0x363c7881	2.8084326e-06
135	0x00000000	0.0
136	0x2d92b604	1.667911e-11
137	0x2e1fd045	3.6337395e-11
138	0x2bdf2dd7	1.5857826e-12
139	0x2bdf2dd7	1.5857826e-12
140	0x36587d27	3.2259356e-06
141	0x3674ef7e	3.6498236e-06
142	0x3589152e	1.021346e-06
143	0x372b2ea8	1.0203257e-05
144	0x372b2ea8	1.0203257e-05
145	0x35b1f2dd	1.325821e-06
146	0x370b1ce5	8.291773e-06
147	0x347549ce	2.2844253e-07
148	0x3686416f	4.0011287e-06
149	0x3686416f	4.0011287e-06

exp_avg f4 [30]
0	0x3ac9ecc8	0.0015405649
1	0x3a41f78a	0.0007399252
2	0x3b29b851	0.0025897215
3	0x3a47eaa9	0.00076262146
4	0x3b196fc6	0.002341257
5	0x3a8f48d7	0.0010931742
6	0xbb058fe9	-0.0020379967
7	0x3b571ef9	0.0032824858
8	0x3b696d48	0.0035618115
9	0x3a6340c3	0.0008669013
10	0xb9a27799	-0.00030988155
11	0x00000000	0.0
12	0x00000004	6e-45
13	0x3abc82e1	0.0014382267
14	0x3aa5e78c	0.0012657507
15	0x00000000	0.0
16	0x3af7fe52	0.0018920398
17	0xbbc3aa08	-0.005971197
18	0xbb93a4a6	-0.0045057116
19	0xb9fa05fd	-0.00047688177
20	0xbab51e84	-0.0013818298
21	0x3a5cdfdc	0.00084256916
22	0x3b056eb1	0.0020360167
23	0xba47239e	-0.0007596555
24	0x3a2dc860	0.00066292845
25	0x00000004	6e-45
26	0x3aa91a24	0.0012901467
27	0x00000004	6e-45
28	0x3a0f39b5	0.0005463616
29	0xbb17d619	-0.0023168384

exp_avg_sq f4 [30]
0	0x381242fd	3.48715e-05
1	0x36e0eaae	6.7030405e-06
2	0x37ec253a	2.8150727e-05
3	0x37f5a9de	2.9285377e-05
4	0x38a4e481	7.8626916e-05
5	0x3784e80e	1.5843685e-05
6	0x38c2c322	9.286987e-05
7	0x38022034	3.1024407e-05
8	0x38c82e13	9.545325e-05
9	0x37280d46	1.0016671e-05
10	0x35a60c28	1.2371502e-06
11	0x00000000	0.0
12	0x2fdc3b57	4.005993e-10
13	0x37c722bb	2.3738821e-05
14	0x379c75d9	1.8651526e-05
15	0x00000000	0.0
16	0x37e6ee45	2.752909e-05
17	0x398a988b	0.00026435065
18	0x38dc9c08	0.000105194806
19	0x37a65c85	1.9831825e-05
20	0x37759bcc	1.4639412e-05
21	0x38065db4	3.2035357e-05
22	0x37c4527b	2.3403429e-05
23	0x37e942a2	2.7806793e-05
24	0x369483bc	4.4260796e-06
25	0x2ad65b06	3.8077197e-13
26	0x3767bbb8	1.381238e-05
27	0x2e1fd045	3.6337395e-11
28	0x379ea360	1.8911145e-05
29	0x37dfa0de	2.6658581e-05

exp_avg f4 [3, 30]
0	0xb97cd738	-0.00024112768
1	0xbb0785e4	-0.002067917
2	0xbac56aea	-0.001506177
3	0xb9bab1ac	-0.0003560906
4	0xbb3de955	-0.0028978188
5	0xbb34a50e	-0.00275642
6	0xba901761	-0.0010993296
7	0xba9975f8	-0.0011708131
8	0xb97acdd1	-0.0002391853
9	0xbb066e50	-0.0020512529
10	0xbaaad513	-0.0013033472
11	0x00000000	0.0
12	0x00000004	6e-45
13	0xbaf0f791	-0.0018384327
14	0xbb07ce7d	-0.0020722442
15	0x00000000	0.0
16	0xba929d3c	-0.0011185776
17	0xbb5ed5a4	-0.0034001851
18	0xbbe48640	-0.0069740117
19	0xbb6e40b2	-0.003635448
20	0xbacd36af	-0.0015656556
21	0xbb901adf	-0.0043977345
22	0xbb1434e9	-0.0022614545
23	0xb9903731	-0.0002750694
24	0xb930443f	-0.00016810092
25	0x00000004	6e-45
26	0xbb0b6308	-0.0021268744
27	0x00000000	0.0
28	0xb7dca5b9	-2.6303214e-05
29	0xbb019850	-0.0019774623
30	0x39996105	0.0002925472
31	0xba864040	-0.0010242537
32	0x384eb9a0	4.9287104e-05
33	0x37a8162c	2.0037485e-05
34	0x3917e932	0.00014487354
35	0xb917ce28	-0.00014477281
36	0x3969b6a1	0.00022288646
37	0x39ecb384	0.00045147177
38	0x38a5b447	7.9013924e-05
39	0xba4b377b	-0.00077521027
40	0xb9777814	-0.00023600488
41	0x00000000	0.0
42	0x00000000	0.0
43	0x3803d8a8	3.143461e-05
44	0xb9b6a398	-0.00034835632
45	0x00000000	0.0
46	0xb9c8aeb0	-0.00038277125
47	0xb9b58fa2	-0.00034630025
48	0xbabb239b	-0.0014277579
49	0xba8a535a	-0.0010553405
50	0xba1b037e	-0.0005913301
51	0xba9c8f95	-0.0011944646
52	0x363dc700	2.8279028e-06
53	0x39a6e716	0.0003183416
54	0xb699bbc2	-4.581613e-06
55	0x00000000	0.0
56	0xb935bfbd	-0.00017332933
57	0x00000000	0.0
58	0xb73ce4a8	-1.1258911e-05
59	0xb9d12191	-0.00039888595
60	0xbb13e4d8	-0.0022566821
61	0xbaa7b90a	-0.0012796235
62	0xbb335af0	-0.0027367435
63	0xbb0a6acc	-0.0021120785
64	0xb926411c	-0.00015855249
65	0xbb5e4df6	-0.003392098
66	0xb9e59899	-0.00043791978
67	0xbb12f56c	-0.0022424115
68	0xba6d6e8e	-0.00090573065
69	0xbb1b82af	-0.0023729017
70	0xba72c51d	-0.00092609396
71	0x00000000	0.0
72	0x80000004	-6e-45
73	0xba08d65d	-0.0005219931
74	0xbafc5c93	-0.0019253663
75	0x00000000	0.0
76	0xbaef6f8b	-0.0018267495
77	0xbafc52f9	-0.0019250802
78	0xbb4dbcbc	-0.0031393012
79	0xb99c21ee	-0.00029779918
80	0xb91db844	-0.00015041331
81	0xba9788d8	-0.0011561168
82	0xbaa56ba8	-0.0012620585
83	0xb8b78c01	-8.752198e-05
84	0xba585802	-0.000825286
85	0x80000004	-6e-45
86	0xbb22853f	-0.002479866
87	0x00000004	6e-45
88	0xb9886f57	-0.00026022896
89	0xba8ef3a0	-0.0010906346

exp_avg_sq f4 [3, 30]
0	0x384668f4	4.7304624e-05
1	0x38929a77	6.990594e-05
2	0x38cf443f	9.883241e-05
3	0x382210e8	3.8639555e-05
4	0x387ef75a	6.0788683e-05
5	0x3932f9c8	0.00017068454
6	0x377d4b5c	1.5097521e-05
7	0x3905d8d1	0.00012764639
8	0x37a2f00b	1.9423684e-05
9	0x38b05c8f	8.4095744e-05
10	0x37d7707b	2.5682375e-05
11	0x00000000	0.0
12	0x2b8c1e04	9.955929e-13
13	0x380ef16d	3.4080284e-05
14	0x38bf652e	9.126436e-05
15	0x00000000	0.0
16	0x382c51dc	4.1084233e-05
17	0x3930e602	0.00016870353
18	0x3a039297	0.0005019097
19	0x38d69819	0.000102326456
20	0x3740804a	1.1473961e-05
21	0x39608cb9	0.00021414728
22	0x38ae71b1	8.318143e-05
23	0x3511a771	5.426037e-07
24	0x37981fa4	1.8134546e-05
25	0x24a9dd1d	7.366665e-17
26	0x38eb03d9	0.0001120639
27	0x00000000	0.0
28	0x34a38163	3.0455257e-07
29	0x3805acc1	3.187056e-05
30	0x37243d29	9.789402e-06
31	0x372ab128	1.0174037e-05
32	0x3817f9e7	3.6233945e-05
33	0x36036ac3	1.9582665e-06
34	0x379263b4	1.7450984e-05
35	0x3785d5fc	1.595448e-05
36	0x35350ec9	6.744927e-07
37	0x38329bd9	4.258365e-05
38	0x353964fe	6.9064833e-07
39	0x3737e8e5	1.0961875e-05
40	0x361a8087	2.30226e-06
41	0x00000000	0.0
42	0x00000000	0.0
43	0x3715b6b4	8.923631e-06
44	0x37d8445d	2.578104e-05
45	0x00000000	0.0
46	0x3663746f	3.389341e-06
47	0x36ae69f9	5.197941e-06
48	0x38cfe13a	9.912481e-05
49	0x37cfb548	2.4760739e-05
50	0x3606b041	2.007015e-06
51	0x38615f21	5.3732776e-05
52	0x36bf8c65	5.7085877e-06
53	0x358cbafd	1.0485234e-06
54	0x35c85187	1.4924889e-06
55	0x00000000	0.0
56	0x3650a2b1	3.1089114e-06
57	0x00000000	0.0
58	0x33c1264f	8.994231e-08
59	0x35bd69cc	1.4112388e-06
60	0x38a1594a	7.6937096e-05
61	0x385c4f1f	5.2525775e-05
62	0x3950add8	0.00019901188
63	0x389fe33b	7.624036e-05
64	0x381cc7e3	3.7379457e-05
65	0x3951f738	0.0002002389
66	0x37720d54	1.4427427e-05
67	0x3961dd16	0.00021540033
68	0x383b62a0	4.4676126e-05
69	0x38aece94	8.335445e-05
70	0x375fa6ec	1.33307e-05
71	0x00000000	0.0
72	0x298c6754	6.2351735e-14
73	0x37e6bc4c	2.750582e-05
74	0x390ac8b1	0.00013235469
75	0x00000000	0.0
76	0x3856d0bb	5.121597e-05
77	0x3900e019	0.00012290514
78	0x39dac028	0.00041723368
79	0x38884732	6.4982465e-05
80	0x35b0fbff	1.3186362e-06
81	0x394598a2	0.00018844244
82	0x38926414	6.9804635e-05
83	0x3570fa56	8.9771254e-07
84	0x38351933	4.317723e-05
85	0x2989b9a1	6.1162237e-14
86	0x39379322	0.00017507051
87	0x2b6c16d5	8.387573e-13
88	0x362b5239	2.5528846e-06
89	0x374e28da	1.2288068e-05

exp_avg f4 [3]
0	0xbbadd19d	-0.005304529
1	0xba9a057b	-0.0011750901
2	0xbae1e8b0	-0.0017235484

exp_avg_sq f4 [3]
0	0x3997d212	0.0002895748
1	0x37d5c1fe	2.5481913e-05
2	0x38f6ed74	0.00011774423
