SelfDrivingCar/Self_Driving_Car_Updated/Self_Driving_Car_Updated/last_brain.pth (torch, 7787 bytes, 12 tensors)

fc1.weight f4 [30, 5]
0.08568606 1.0143814 -0.55732 0.15992074 -0.3938697 0.56116617 0.46666077 0.58133084
0.12349035 -0.4011812 -0.013787806 0.038190216 0.083934784 -0.06963301 0.11000931 0.2586672
-0.36295637 0.20285514 0.69227654 -0.44880635 0.016789913 0.10671884 -0.22290127 0.39887333
0.23616582 -1.0656743 -0.43810394 -1.3348519 -0.13034017 -0.15111913 0.03386518 0.12210488
-0.42025214 -0.23730122 0.08212994 -0.2598952 -0.31357652 0.17053998 -0.24618998 -0.12722352
0.60243505 0.83263016 -0.39463603 0.15994197 0.12293299 0.6760232 0.57394695 0.33316815
-0.35926312 -0.18449374 0.35971677 -0.33975852 0.011707235 -0.5035924 0.5986612 0.6228567
0.18751842 0.80665094 -0.35654715 0.010546363 -2.3727355 -0.4416741 -0.68950945 -0.2905332
-0.28257337 0.47068143 0.33475032 -0.13153316 -0.6738676 0.5377457 -0.1792403 0.23898578
-0.08481292 -0.6031348 0.7544395 -0.2357273 0.33927268 0.06844134 -0.2273762 -0.21414702
0.27252787 0.34925312 -1.4143593 -0.57178867 0.37660313 -0.90572864 -0.0867233 0.41041413
0.3449399 -0.5590501 -0.335647 0.2302484 0.5040727 0.66529936 -0.5643188 0.9887959
-0.28089797 0.28321305 -0.22114004 -0.32264903 0.22943723 -0.056609232 0.02382139 0.80733556
-0.54481465 0.20831671 -0.66826874 0.27113932 -0.5662461 0.54350585 -2.3743014 -1.5169446
-1.6228737 -0.25419077 0.2604536 -0.43035132 -0.30222 0.34078598 0.16555488 0.35695797
-0.010624003 -0.09535001 0.4933291 0.72497594 -0.72590744 -0.20900173 0.46457395 -0.031078978
0.33169407 -0.46349627 0.27945998 0.46015486 1.1224474 -0.18732142 -0.45496634 0.30236924
-0.32883513 -0.30658835 0.052301764 -0.054307282 -0.27247536 -0.34506088 -0.032984316 0.275338
0.14556521 -0.18901044 -0.34046945 0.016366988 -0.20165579 0.07015765
00000000: 2c7c af3d 40d7 813f 86ac 0ebf 43c2 233e
00000010: 4aa9 c9be 96a8 0f3f 29ee ee3e 19d2 143f
00000020: 82e8 fc3d 9f67 cdbe 40e6 61bc 586d 1c3d
00000030: 00e6 ab3d c09b 8ebd 904c e13d 0770 843e
00000040: 6bd5 b9be 42b9 4f3e 0939 313f f2c9 e5be
00000050: 008b 893c 688f da3d 3b40 64be 2039 cc3e
00000060: 74d5 713e 0468 88bf 294f e0be 6ddc aabf
00000070: e577 05be f9be 1abe 37b6 0a3d 2012 fa3d
00000080: 4a2b d7be 17ff 72be be33 a83d fc10 85be
00000090: 1a8d a0be 08a2 2e3e 3a19 7cbe e246 02be
000000a0: 2f39 1a3f 4027 553f bc0d cabe d4c7 233e
000000b0: 4bc4 fb3d db0f 2d3f 30ee 123f 0495 aa3e
000000c0: 56f1 b7be edeb 3cbe cc2c b83e d4f4 adbe
000000d0: b4cf 3f3c 6eeb 00bf dc41 193f 8973 1f3f
000000e0: d404 403e ad80 4e3f 598d b6be a7ca 2c3c
000000f0: e6da 17c0 1c23 e2be b183 30bf c5c0 94be
00000100: 75ad 90be 28fd f03e 6564 ab3e a1b0 06be
00000110: 9682 2cbf b4a9 093f c58a 37be b0b8 743e
00000120: 65b2 adbd 0b67 1abf f222 413f 7f62 71be
00000130: 26b5 ad3e f92a 8c3d 4ed5 68be 5b49 5bbe
00000140: c688 8b3e 4ed1 b23e ba09 b5bf be60 12bf
00000150: 20d2 c03e d5dd 67bf fc9b b1bd cd21 d23e
00000160: f69b b03e e81d 0fbf ecd9 abbe 3dc6 6b3e
00000170: e90a 013f 0f51 2a3f 3277 10bf ba21 7d3f
00000180: dcd1 8fbe 4d01 913e 8972 62be 4132 a5be
00000190: 98f1 6a3e 15df 67bd 1325 c33c 8bad 4e3f
000001a0: f978 0bbf fa50 553e a913 2bbf c6d2 8a3e
000001b0: 81f5 10bf 3323 0b3f 8ef4 17c0 3e2b c2bf
000001c0: 53ba cfbf 4b25 82be 2d5a 853e 0257 dcbe
000001d0: 94bc 9abe 807b ae3e 3887 293e 32c3 b63e
000001e0: 4c10 2ebc de46 c3bd a295 fc3e 0698 393f
000001f0: 12d5 39bf 8d04 56be a3dc ed3e 5799 febc
00000200: ced3 a93e 624f edbe 6115 8f3e 6b99 eb3e
00000210: 5bac 8f3f 30d1 3fbe 59f1 e8be 24d0 9a3e
00000220: 145d a8be 26f9 9cbe 603a 563d 5071 5ebd
00000230: e481 8bbe d2ab b0be 901a 07bd 1af9 8c3e
00000240: 0c0f 153e f48b 41be 0352 aebe 1014 863c
00000250: db7e 4ebe d0ae 8f3d

fc1.bias f4 [30]
0.2812541 0.13655922 -0.30608496 -0.33237994 -0.28685138 0.7070635 -0.4091497 -0.41506448
0.22965102 0.17657937 0.11778244 0.36463568 0.48835018 -0.50060976 0.25693768 -0.4300847
-0.42455652 0.19940053 -0.4548327 0.16284463 -0.33623615 0.3818465 0.50941074 -0.3984908
-0.4560481 0.10318613 -0.35125136 -0.26032013 -0.17637822 -0.39312717
00000000: 8a00 903e 2ed6 0b3e 2bb7 9cbe b42d aabe
00000010: 2fde 92be 1d02 353f 127c d1be 5583 d4be
00000020: a329 6b3e 39d1 343e eb37 f13d 87b1 ba3e
00000030: 0909 fa3e f627 00bf 568d 833e 1034 dcbe
00000040: 795f d9be a72f 4c3e d5df e8be bec0 263e
00000050: 2527 acbe 6281 c33e be68 023f fc06 ccbe
00000060: 237f e9be 4053 d33d 38d7 b3be ae48 85be
00000070: 7e9c 34be f747 c9be

fc2.weight f4 [3, 30]
0.6384596 -0.29462928 -0.03579454 -0.11285629 -0.14460859 0.2532887 0.051240094 -0.053982005
-0.49796462 -0.48680264 -0.35617426 -0.4343207 0.3664845 -0.5408097 -0.19242887 -0.05130176
-0.309232 -0.59711075 -0.17340195 -0.0833593 0.013767887 -0.01704392 0.38140437 0.16972885
-0.67665315 0.09223233 0.7876355 0.0068980753 0.00024156272 0.08849317 -0.5654641 0.11171419
-0.079565845 -0.6491818 -0.16280565 0.42223468 -0.0820945 -0.0694503 -0.64318323 -0.27113912
-0.25186 0.047425747 0.5906255 -0.534622 -0.8309398 0.12726718 -1.4824653 0.25983027
-0.17353821 0.00045035192 -0.68220854 0.10354974 0.7269975 -0.06143572 -0.75921977 -0.05969207
0.5062945 0.1808703 0.034015015 0.13691065 0.4493117 0.057771146 0.14429429 -0.34382093
0.13731343 0.57454216 0.047167305 0.073973626 -0.06801244 -0.2997785 -0.21589331 -0.25595996
0.7356422 -0.5745913 -0.29815587 0.014571238 -0.64023113 -0.28704444 -0.73301184 -0.5091715
-0.26479 -0.6080131 0.45245597 0.12310997 -0.4289103 -0.34409317 1.0598434 -0.042327523
-0.18167005 -0.17027795
00000000: 1772 233f a6d9 96be 4c9d 12bd 3321 e7bd
00000010: 4614 14be 0eaf 813e 22e1 513d 3c1c 5dbd
00000020: 38f5 febe 323e f9be 795c b6be 485f debe
00000030: dba3 bb3e 8172 0abf 130c 45be cb21 52bd
00000040: a853 9ebe 40dc 18bf 4890 31be 48b8 aabd
00000050: b492 613c b19f 8bbc 6f47 c33e 66cd 2d3e
00000060: 2439 2dbf 4ee4 bc3d 7ba2 493f 4009 e23b
00000070: 004c 7d39 e83b b53d 41c2 10bf 69ca e43d
00000080: 6bf3 a2bd c730 26bf 86b6 26be 252f d83e
00000090: 2921 a8bd f53b 8ebd a8a7 24bf bfd2 8abe
000000a0: cbf3 80be 8041 423d 3c33 173f fddc 08bf
000000b0: 79b8 54bf 5452 023e 6cc1 bdbf 7908 853e
000000c0: 00b4 31be 361d ec39 38a5 2ebf e311 d43d
000000d0: 821c 3a3f 06a4 7bbd 3a5c 42bf ac7f 74bd
000000e0: 849c 013f 1036 393e 5453 0b3d 4e32 0c3e
000000f0: 2f0c e63e 70a1 6c3d e2c1 133e 4c09 b0be
00000100: e49b 0c3e 3215 133f 8132 413d 7c7f 973d
00000110: 1b4a 8bbd 917c 99be 2313 5dbe 2f0d 83be
00000120: 0c53 3c3f 6a18 13bf e3a7 98be 34bc 6e3c
00000130: 30e6 23bf 7df7 92be aaa6 3bbf 1059 02bf
00000140: 8e92 87be bfa6 1bbf 4fa8 e73e 1421 fc3d
00000150: 219a dbbe fb2c b0be f3a8 873f a05f 2dbd
00000160: b707 3abe 585d 2ebe

fc2.bias f4 [3]
-0.25758344 0.13129172 0.05482558
00000000: fae1 83be 5671 063e ca90 603d

exp_avg f4 [30, 5]
0.0004835149 0.0017993057 0.0018471398 -6.616411e-05 6.616411e-05 9.6552656e-05 0.00022811981 6.3694635e-05
-0.0004142709 0.0004142709 0.0 0.0 0.0 0.0 0.0 -0.00046384454
-5.4652322e-05 -0.00026642543 0.0004909104 -0.0004909104 0.0 0.0 0.0 0.0
0.0 -0.00015594726 0.0015447314 -0.00016140378 -0.0012596429 0.0012596429 6e-45 6e-45
-6e-45 -6e-45 6e-45 0.0 0.0 0.0 0.0 0.0
0.00022621121 -0.00031812344 0.00076701597 -0.00015965546 0.00015965546 4.921556e-05 -0.0011998768 -0.00021900928
0.00025862295 -0.00025862295 0.00016122294 -0.0006173499 3.0299023e-05 -4.8618967e-06 4.8618967e-06 4.2270767e-06
-0.0009793574 -0.00053414336 0.0001297112 -0.0001297112 0.00016365646 0.0022911958 -0.00030828477 -0.0018141737
0.0018141737 -0.0001900569 -0.0009054409 -8.321111e-05 -0.00010548017 0.00010548017 0.000509505 -0.0014330228
0.0006217574 0.00017307804 -0.00017307804 6e-45 6e-45 6e-45 6e-45 -6e-45
0.00015380229 -0.0006412858 3.0620347e-06 0.0005788222 -0.0005788222 -0.0001669628 -0.0011466322 -0.00061686547
7.040336e-05 -7.040336e-05 -0.0006652861 -0.00015352007 -0.0010117787 -8.747207e-06 8.747207e-06 -0.00019497129
-0.0007309234 -0.0010720512 0.00033640055 -0.00033640055 -0.0002235216 0.00022352603 -0.00014742145 0.00049431436
-0.00049431436 -0.0003287226 -0.0014837867 -0.00080400286 0.0013509105 -0.0013509105 4.4028115e-05 -0.00028540837
-0.00032349513 8.414603e-05 -8.414603e-05 0.0 0.0 0.0 0.0 0.0
-0.000673238 -0.00017135013 -0.00043165183 0.00042485536 -0.00042485536 -3.4692806e-05 -0.0009420426 -0.0006649201
0.00047045725 -0.00047045725 0.00036644223 0.0033410487 0.0014147657 0.00067401386 -0.00067401386 0.0
0.0 0.0 0.0 0.0 0.0 0.0 0.0 0.0
0.0 0.0 0.0 0.0 0.0 0.0
00000000: 4580 fd39 aed6 eb3a ba1b f23a 96c1 8ab8
00000010: 96c1 8a38 507c ca38 7233 6f39 cc93 8538
00000020: 8032 d9b9 8032 d939 0000 0000 0000 0000
00000030: 0000 0000 0000 0000 0000 0000 2930 f3b9
00000040: 7c3a 65b8 04af 8bb9 70b0 003a 70b0 00ba
00000050: 0000 0000 0000 0000 0000 0000 0000 0000
00000060: 0000 0000 c685 23b9 9678 ca3a 7f3e 29b9
00000070: 9a1a a5ba 9a1a a53a 0400 0000 0400 0000
00000080: 0400 0080 0400 0080 0400 0000 0000 0000
00000090: 0000 0000 0000 0000 0000 0000 0000 0000
000000a0: 1c33 6d39 cec9 a6b9 9211 493a 3069 27b9
000000b0: 3069 2739 ce6c 4e38 2f45 9dba dba5 65b9
000000c0: c997 8739 c997 87b9 f40d 2939 a7d5 21ba
000000d0: a82a fe37 6023 a3b6 6023 a336 50d6 8d36
000000e0: c85d 80ba c105 0cba 1603 0839 1603 08b9
000000f0: 329b 2b39 e327 163b 48a1 a1b9 91c9 edba
00000100: 91c9 ed3a 034a 47b9 1c5b 6dba a081 aeb8
00000110: 3c35 ddb8 3c35 dd38 4d90 053a 44d4 bbba
00000120: 6ffd 223a 487c 3539 487c 35b9 0400 0000
00000130: 0400 0000 0400 0000 0400 0000 0400 0080
00000140: fd45 2139 f61b 28ba 5b7d 4d36 1abc 173a
00000150: 1abc 17ba bc12 2fb9 984a 96ba 24b5 21ba
00000160: 84a5 9338 84a5 93b8 9866 2eba 3bfa 20b9
00000170: a99d 84ba f8c0 12b7 f8c0 1237 3571 4cb9
00000180: 709b 3fba 1284 8cba eb5e b039 eb5e b0b9
00000190: 1f61 6ab9 5062 6a39 2595 1ab9 e094 013a
000001a0: e094 01ba 6758 acb9 9f7b c2ba b8c3 52ba
000001b0: 0911 b13a 0911 b1ba d4aa 3838 dda2 95b9
000001c0: c89a a9b9 8e77 b038 8e77 b0b8 0000 0000
000001d0: 0000 0000 0000 0000 0000 0000 0000 0000
000001e0: 3d7c 30ba 73ac 33b9 544f e2b9 1fbf de39
000001f0: 1fbf deb9 1e83 11b8 69f3 76ba 084e 2eba
00000200: b4a7 f639 b4a7 f6b9 0b1f c039 7ff5 5a3b
00000210: a96f b93a 4eb0 303a 4eb0 30ba 0000 0000
00000220: 0000 0000 0000 0000 0000 0000 0000 0000
00000230: 0000 0000 0000 0000 0000 0000 0000 0000
00000240: 0000 0000 0000 0000 0000 0000 0000 0000
00000250: 0000 0000 0000 0000

exp_avg_sq f4 [30, 5]
5.831325e-06 1.3040138e-05 7.741402e-06 1.3061979e-05 1.3061979e-05 2.919829e-07 2.2224282e-07 2.5013824e-07
4.87764e-07 4.87764e-07 0.0 0.0 0.0 0.0 0.0 1.195999e-06
9.136353e-07 2.7389706e-06 5.1943157e-06 5.1943157e-06 0.0 0.0 0.0 0.0
0.0 2.9559865e-07 1.1965491e-05 1.1127006e-06 1.6342037e-05 1.6342037e-05 5.396921e-12 8.036587e-12
5.0521766e-12 1.929898e-10 1.929898e-10 0.0 0.0 0.0 0.0 0.0
3.1684322e-06 1.4653905e-06 7.3239357e-06 1.29159735e-05 1.29159735e-05 3.0793735e-06 5.716231e-06 3.254633e-06
7.4136233e-06 7.4136233e-06 1.6605628e-06 1.581442e-06 1.6432314e-06 3.0679962e-06 3.0679962e-06 1.8846755e-06
3.9896513e-06 1.3529873e-06 3.748921e-06 3.748921e-06 1.4255951e-07 1.7438078e-05 2.1261897e-06 2.6592848e-05
2.6592848e-05 6.2176096e-06 6.602253e-06 4.4436833e-06 1.5657295e-05 1.5657295e-05 4.2557713e-06 4.994824e-06
8.8368115e-06 1.4455254e-05 1.4455254e-05 3.2167254e-13 2.1528666e-12 7.4565956e-13 7.535553e-13 7.535553e-13
1.6875331e-06 6.3377765e-06 8.843084e-08 4.1043364e-05 4.1043364e-05 5.425414e-07 3.7249167e-06 1.7838106e-06
3.1906482e-06 3.1906482e-06 2.2991444e-06 5.843152e-06 3.5766238e-06 8.968412e-06 8.968412e-06 6.5083477e-06
9.5908135e-06 5.7550633e-06 1.1755752e-05 1.1755752e-05 1.2762423e-06 1.2228737e-06 2.7196081e-06 4.8427314e-06
4.8427314e-06 6.111712e-06 8.53122e-06 5.5726464e-06 9.901803e-06 9.901803e-06 1.26150415e-08 1.0573751e-06
6.5395557e-07 1.4963245e-05 1.4963245e-05 0.0 0.0 0.0 0.0 0.0
1.7442235e-06 1.9520169e-06 4.6361174e-06 7.730636e-06 7.730636e-06 1.9823433e-06 7.150194e-06 2.127325e-06
4.030248e-06 4.030248e-06 2.755515e-05 5.4286604e-05 2.616872e-05 1.778959e-05 1.778959e-05 0.0
0.0 0.0 0.0 0.0 0.0 0.0 0.0 0.0
0.0 0.0 0.0 0.0 0.0 0.0
00000000: b3aa c336 f7c6 5a37 12e1 0137 c624 5b37
00000010: c624 5b37 d3c1 9c34 a4a1 6e34 bd4a 8634
00000020: e3ee 0235 e3ee 0235 0000 0000 0000 0000
00000030: 0000 0000 0000 0000 0000 0000 3686 a035
00000040: 8a40 7535 28cf 3736 d54a ae36 d54a ae36
00000050: 0000 0000 0000 0000 0000 0000 0000 0000
00000060: 0000 0000 c5b2 9e34 64bf 4837 1a58 9535
00000070: 4216 8937 4216 8937 25e3 bd2c 9261 0d2d
00000080: f6c1 b12c cd31 542f cd31 542f 0000 0000
00000090: 0000 0000 0000 0000 0000 0000 0000 0000
000000a0: 40a1 5436 6fae c435 21c0 f536 afb1 5837
000000b0: afb1 5837 3ca7 4e36 0dce bf36 2b6a 5a36
000000c0: 8ac2 f836 8ac2 f836 81e0 de35 ef41 d435
000000d0: 008d dc35 c6e3 4d36 c6e3 4d36 f5f4 fc35
000000e0: d8de 8536 4a98 b535 f995 7b36 f995 7b36
000000f0: 7612 1934 fd47 9237 a9af 0e36 b513 df37
00000100: b513 df37 dca0 d036 ec88 dd36 f31a 9536
00000110: c957 8337 c957 8337 cccc 8e36 3699 a736
00000120: d141 1437 d884 7237 d884 7237 e615 b52a
00000130: 997e 172c 6fe2 512b 621b 542b 621b 542b
00000140: 327f e235 16a9 d436 5ee7 bd33 fa25 2c38
00000150: fa25 2c38 29a3 1135 95f9 7936 446b ef35
00000160: eb1e 5636 eb1e 5636 004b 1a36 4b10 c436
00000170: ee05 7036 0977 1637 0977 1637 4862 da36
00000180: 3be8 2037 9e1b c136 923a 4537 923a 4537
00000190: 5a4b ab35 9f21 a435 8382 3636 bf7e a236
000001a0: bf7e a236 3513 cd36 5021 0f37 abfc ba36
000001b0: ec1f 2637 ec1f 2637 8ab9 5832 22eb 8d35
000001c0: 7c8b 2f35 a60a 7b37 a60a 7b37 0000 0000
000001d0: 0000 0000 0000 0000 0000 0000 0000 0000
000001e0: 101b ea35 65ff 0236 f28f 9b36 d4b2 0137
000001f0: d4b2 0137 6608 0536 b3eb ef36 2ac3 0e36
00000200: 913b 8736 913b 8736 3c26 e737 ccb1 6338
00000210: e684 db37 db3a 9537 db3a 9537 0000 0000
00000220: 0000 0000 0000 0000 0000 0000 0000 0000
00000230: 0000 0000 0000 0000 0000 0000 0000 0000
00000240: 0000 0000 0000 0000 0000 0000 0000 0000
00000250: 0000 0000 0000 0000

exp_avg f4 [30]
0.0012607044 4.952248e-05 0.0 0.0005266589 0.0 -0.00039264438 6e-45 0.0
0.0013521117 0.0002689951 0.00019728117 -0.00021257339 0.00041211193 -0.00028538035 0.00087428815 6e-45
-0.00035490072 -0.0010747763 -2.3009576e-05 0.000712715 0.00032812054 -0.0009945856 -0.0012803706 0.0
0.00032629762 -0.00012660498 0.002884922 0.0 0.0 0.0
00000000: 383e a53a 5cb6 4f38 0000 0000 7b0f 0a3a
00000010: 0000 0000 d6db cdb9 0400 0000 0000 0000
00000020: 5739 b13a e907 8d39 43dd 4e39 3ce6 5eb9
00000030: ba10 d839 1a9f 95b9 7c30 653a 0400 0000
00000040: f811 bab9 82df 8cba b004 c1b7 7ed5 3a3a
00000050: 9807 ac39 c15c 82ba 1cd2 a7ba 0000 0000
00000060: ed12 ab39 44c1 04b9 f610 3d3b 0000 0000
00000070: 0000 0000 0000 0000

exp_avg_sq f4 [30]
0.0001875278 4.0996542e-06 0.0 1.4253388e-05 0.0 0.00015429119 2.40378e-10 0.0
0.00013614312 5.8293313e-05 2.6935995e-05 2.6131493e-05 0.00025568614 3.4728982e-05 0.00020594371 2.1528666e-12
8.155706e-05 4.628362e-05 2.0399144e-05 0.000101001475 1.5240108e-05 0.0001109622 0.00017832652 0.0
2.16316e-05 5.0587478e-05 0.00010322656 0.0 0.0 0.0
00000000: 1ca3 4439 c38f 8936 0000 0000 d621 6f37
00000010: 0000 0000 3ac9 2139 3226 842f 0000 0000
00000020: a4c1 0e39 f87f 7438 9cf4 e137 f434 db37
00000030: 9d0d 8639 f6a9 1138 98f2 5739 997e 172c
00000040: 9d09 ab38 a920 4238 d41e ab37 c1d0 d338
00000050: c4af 7f37 61b4 e838 29fd 3a39 0000 0000
00000060: 8275 b537 e42d 5438 567b d838 0000 0000
00000070: 0000 0000 0000 0000

exp_avg f4 [3, 30]
5.8166657e-05 5.5237917e-05 0.0 0.00013668968 0.0 -0.00016428342 6e-45 0.0
-0.00035804103 -0.0006308697 -0.0011486437 -0.000988383 -0.00011246008 -0.00082612294 -0.001392253 6e-45
-0.00029834165 9.564715e-05 0.00017123212 -0.0003327015 0.0001870276 -0.0013261415 -0.00019656349 0.0
0.00020264222 0.00017770614 8.854772e-05 0.0 0.0 0.0 -0.00033036387 -0.0012218864
0.0 -0.0007237669 0.0 0.00070935674 6e-45 0.0 0.00012395607 -0.0006895083
-0.0006529225 -0.0015837138 0.00017960009 -0.00053217966 -0.0007041299 0.0 4.8010734e-05 -0.001425205
-0.0009986527 -0.00083938404 -0.00084950344 -0.0016024718 0.00090899103 0.0 -0.0010416729 -0.00065297156
-0.00016346137 0.0 0.0 0.0 0.0020898862 0.0023995102 0.0 0.000642654
0.0 -0.0014850064 6e-45 0.0 0.0031709657 0.004069051 0.0012977179 0.004277496
-0.0013956097 0.0014529871 0.004532663 6e-45 0.0009227587 -0.0009582024 0.0006322594 0.00032390654
0.00033313964 0.001686857 -0.0009326917 0.0 0.00087061484 0.0002875731 0.0022842686 0.0
0.0 0.0
00000000: f9f7 7338 43af 6738 0000 0000 5b54 0f39
00000010: 0000 0000 7f43 2cb9 0400 0000 0000 0000
00000020: 74b7 bbb9 f360 25ba 168e 96ba a18c 81ba
00000030: 8cd8 ebb8 2c90 58ba 427c b6ba 0400 0000
00000040: bd6a 9cb9 2c96 c838 c68c 3339 706e aeb9
00000050: d71c 4439 edd1 adba 9c1c 4eb9 0000 0000
00000060: 5b7c 5439 a156 3a39 b2b2 b938 0000 0000
00000070: 0000 0000 0000 0000 b034 adb9 b427 a0ba
00000080: 0000 0000 2dbb 3dba 0000 0000 20f4 393a
00000090: 0400 0000 0000 0000 34fa 0139 1ec0 34ba
000000a0: e328 2bba 9e94 cfba 0853 3c39 f981 0bba
000000b0: 5c95 38ba 0000 0000 225f 4938 f2cd baba
000000c0: 39e5 82ba 1c0a 5cba 36b1 5eba 080a d2ba
000000d0: 5b49 6e3a 0000 0000 be88 88ba 2e2c 2bba
000000e0: d466 2bb9 0000 0000 0000 0000 0000 0000
000000f0: 79f6 083b 1a41 1d3b 0000 0000 c877 283a
00000100: 0000 0000 8ca4 c2ba 0400 0000 0000 0000
00000110: facf 4f3b ac55 853b 3018 aa3a 3d2a 8c3b
00000120: e4ec b6ba 2872 be3a bc86 943b 0400 0000
00000130: 4ae5 713a e02f 7bba 36be 253a 00d2 a939
00000140: 3fa9 ae39 8719 dd3a e17f 74ba 0000 0000
00000150: f939 643a 68c5 9639 abb3 153b 0000 0000
00000160: 0000 0000 0000 0000

exp_avg_sq f4 [3, 30]
2.2109734e-06 2.2119837e-06 0.0 2.4131523e-07 0.0 6.3514955e-07 1.789172e-11 0.0
3.712112e-06 4.836282e-06 6.6953894e-06 7.444098e-06 3.715303e-07 4.857626e-06 7.816181e-06 7.246389e-13
1.1603723e-06 4.0851032e-07 4.2516385e-07 2.5631798e-06 8.559247e-07 7.534017e-06 6.861504e-07 0.0
4.9281516e-07 1.3181805e-06 4.3307531e-07 0.0 0.0 0.0 2.2810273e-05 3.8299197e-05
0.0 4.8251186e-06 0.0 0.00012168926 3.0086288e-13 0.0 1.9311148e-05 2.97199e-05
3.6196176e-05 9.521817e-05 6.552145e-05 1.0502518e-05 6.8557194e-05 0.0 4.3906057e-06 3.0401492e-05
5.7382895e-06 2.2896731e-05 6.647369e-06 9.262015e-05 7.49088e-05 0.0 9.64546e-06 1.4067588e-05
1.2169929e-05 0.0 0.0 0.0 0.0001434897 9.860436e-05 0.0 7.750559e-06
0.0 0.0001262906 6.12821e-10 0.0 0.00011247472 0.000102590595 3.9533446e-05 0.00015045967
5.9468934e-05 2.6147136e-05 8.0604106e-05 4.04782e-12 7.990142e-06 4.7511912e-05 1.0375499e-05 3.9452767e-05
1.6895958e-05 6.5975546e-05 3.958276e-05 0.0 1.4466654e-05 5.54438e-05 2.8167551e-05 0.0
0.0 0.0
00000000: 3c60 1436 9771 1436 0000 0000 1d8e 8134
00000010: 0000 0000 257f 2a35 9260 9d2d 0000 0000
00000020: 991d 7936 5947 a236 f5a8 e036 51c8 f936
00000030: bc76 c734 b1fe a236 3e22 0337 bcf7 4b2b
00000040: 17be 9b35 3b51 db34 1342 e434 1803 2c36
00000050: b3c2 6535 b7cc fc36 e52f 3835 0000 0000
00000060: 004a 0435 56ec b035 6b81 e834 0000 0000
00000070: 0000 0000 0000 0000 b058 bf37 73a3 2038
00000080: 0000 0000 74e7 a136 0000 0000 6d33 ff38
00000090: e95e a92a 0000 0000 60fe a137 004f f937
000000a0: 59d1 1738 deaf c738 9068 8938 f933 3037
000000b0: 5dc6 8f38 0000 0000 0453 9336 b506 ff37
000000c0: 888b c036 5b12 c037 770c df36 103d c238
000000d0: 5b18 9d38 0000 0000 efd2 2137 d503 6c37
000000e0: 722d 4c37 0000 0000 0000 0000 0000 0000
000000f0: b975 1639 d0c9 ce38 0000 0000 6608 0237
00000100: 0000 0000 e06c 0439 7273 2830 0000 0000
00000110: 68e0 eb38 e825 d738 b7d0 2538 b6c4 1d39
00000120: 486e 7938 8c56 db37 000a a938 856b 8e2c
00000130: 660d 0637 8747 4738 6e12 2e37 167a 2538
00000140: cbbb 8d37 5a5c 8a38 aa05 2638 0000 0000
00000150: ceb5 7237 548c 6838 5b49 ec37 0000 0000
00000160: 0000 0000 0000 0000

exp_avg f4 [3]
-0.0007953761 -0.0016295365 0.0018991854
00000000: c980 50ba 2c96 d5ba 16ee f83a

exp_avg_sq f4 [3]
5.313211e-06 0.00032300243 0.00039047975
00000000: 2348 b236 a758 a939 4eb9 cc39
