RainPredictor/model.pth (torch, 2951 bytes, 5 tensors)

weight f4 [5, 4]
000000 86 75 a5 3e 3b 7c 1c 3f ac 7f e2 3e e0 c2 ec 3e
       0.32316226 0.6112706 0.4423803 0.46242428
000010 31 0e 6e bd 40 15 b4 bd 2b 48 47 bf 1b 3b 94 3e
       -0.058119003 -0.087931156 -0.77844495 0.28951344
000020 39 97 d9 3e b2 34 70 be b7 6b 44 3f 59 a1 c8 3d
       0.42498186 -0.23457602 0.7672686 0.097963996
000030 17 ae b5 3e 17 dd 65 3d 1b 84 69 3e 0c d4 ab bd
       0.35484383 0.05611905 0.228043 -0.08390054
000040 6f cb e2 3e 61 38 f9 bd 64 70 55 bf 2d 12 fb 3d
       0.44295833 -0.121689565 -0.8337462 0.12259326

bias f4 [5]
000000 a9 01 5d be 69 f1 96 bd b5 61 46 be 05 24 a3 3e
       -0.21582665 -0.07370264 -0.1937321 0.31863418
000010 5b 7b d3 be
       -0.4130505

weight f4 [3, 5]
000000 40 1e 53 be 06 50 01 be e6 ac 89 be c8 e3 2c 3d
       -0.20617008 -0.12628183 -0.26889724 0.042209417
000010 f7 26 e2 be 7f cd d6 3e 2d 87 c0 be a1 35 9f 3e
       -0.44170353 0.41953656 -0.3760313 0.31095603
000020 7a 6c 55 3d 77 f0 13 be d2 55 85 3e 6b 1b 86 3d
       0.052105404 -0.14447199 0.26042038 0.06548198
000030 29 63 ca 3e f0 fe 8f 3d 78 96 11 be
       0.39528778 0.07031047 -0.14217556

bias f4 [3]
000000 e8 15 f6 3d a6 1d da bd 26 5d 31 3e
       0.12015897 -0.10650186 0.1732069

weight f4 [1, 3]
000000 ea f5 03 3f 7c 49 b3 3e da a9 7b be
       0.5154711 0.35017002 -0.24576512
